…
[nltk_data]     /home/is/kaifan-l/nltk_data...
[nltk_data]   Package punkt is already up-to-date!
/home/is/kaifan-l/miniconda3/envs/summarization/lib/python3.11/site-packages/torch/cuda/memory.py:303: FutureWarning: torch.cuda.reset_max_memory_allocated now calls torch.cuda.reset_peak_memory_stats, which resets /all/ peak memory stats.
  warnings.warn(
trainable params: 184,320 || all params: 139,604,736 || trainable%: 0.13202990477343118
BartPrefixForConditionalGeneration(
  (model): PeftModelForSeq2SeqLM(
    (base_model): BartForConditionalGeneration(
      (model): BartModel(
        (shared): Embedding(50265, 768, padding_idx=1)
        (encoder): BartEncoder(
          (embed_tokens): Embedding(50265, 768, padding_idx=1)
          (embed_positions): BartLearnedPositionalEmbedding(1026, 768)
          (layers): ModuleList(
            (0-5): 6 x BartEncoderLayer(
              (self_attn): BartAttention(
                (k_proj): Linear(in_features=768, out_features=768, bias=True)
                (v_proj): Linear(in_features=768, out_features=768, bias=True)
                (q_proj): Linear(in_features=768, out_features=768, bias=True)
                (out_proj): Linear(in_features=768, out_features=768, bias=True)
              )
              (self_attn_layer_norm): LayerNorm((768,), eps=1e-05, elementwise_affine=True)
              (activation_fn): GELUActivation()
              (fc1): Linear(in_features=768, out_features=3072, bias=True)
              (fc2): Linear(in_features=3072, out_features=768, bias=True)
              (final_layer_norm): LayerNorm((768,), eps=1e-05, elementwise_affine=True)
            )
          )
          (layernorm_embedding): LayerNorm((768,), eps=1e-05, elementwise_affine=True)
        )
        (decoder): BartDecoder(
          (embed_tokens): Embedding(50265, 768, padding_idx=1)
          (embed_positions): BartLearnedPositionalEmbedding(1026, 768)
          (layers): ModuleList(
            (0-5): 6 x BartDecoderLayer(
              (self_attn): BartAttention(
                (k_proj): Linear(in_features=768, out_features=768, bias=True)
                (v_proj): Linear(in_features=768, out_features=768, bias=True)
                (q_proj): Linear(in_features=768, out_features=768, bias=True)
                (out_proj): Linear(in_features=768, out_features=768, bias=True)
              )
              (activation_fn): GELUActivation()
              (self_attn_layer_norm): LayerNorm((768,), eps=1e-05, elementwise_affine=True)
              (encoder_attn): BartAttention(
                (k_proj): Linear(in_features=768, out_features=768, bias=True)
                (v_proj): Linear(in_features=768, out_features=768, bias=True)
                (q_proj): Linear(in_features=768, out_features=768, bias=True)
                (out_proj): Linear(in_features=768, out_features=768, bias=True)
              )
              (encoder_attn_layer_norm): LayerNorm((768,), eps=1e-05, elementwise_affine=True)
              (fc1): Linear(in_features=768, out_features=3072, bias=True)
              (fc2): Linear(in_features=3072, out_features=768, bias=True)
              (final_layer_norm): LayerNorm((768,), eps=1e-05, elementwise_affine=True)
            )
          )
          (layernorm_embedding): LayerNorm((768,), eps=1e-05, elementwise_affine=True)
        )
      )
      (lm_head): Linear(in_features=768, out_features=50265, bias=False)
    )
    (prompt_encoder): ModuleDict(
      (default): PrefixEncoder(
        (embedding): Embedding(20, 9216)
      )
    )
    (word_embeddings): Embedding(50265, 768, padding_idx=1)
  )
)
Start training ...
cuda
================================== epoch 0 ==================================
  0%|          | 0/36 [00:00<?, ?it/s]You're using a BartTokenizerFast tokenizer. Please note that with a fast tokenizer, using the `__call__` method is faster than using a method to encode the text followed by a call to the `pad` method to get a padded encoding.
…
